models/fashion_mnist_model.pth (torch, 34976 bytes, 10 tensors)

block_1.0.weight f4 [10, 1, 3, 3]
000000 97 3d b6 be 84 40 6e 3e 12 ec 10 be df c0 f9 bd
       -0.35593864 0.23266798 -0.14152554 -0.1219499
000010 5e 80 03 bf c6 30 ff 3d ab 37 a5 3d d6 b5 c3 be
       -0.5136775 0.12460475 0.080672584 -0.38224667
000020 92 a7 4a be 4a 3a 12 be c8 f8 9e 3e 0c db 97 be
       -0.19790486 -0.14280048 0.3104918 -0.29659307
000030 0c 6a ab 3e 7a 95 7b 3e cc 3a 92 be 51 73 70 3e
       0.33479345 0.2456874 -0.28560483 0.2348149
000040 9d e8 ab 3e c6 21 71 3e be af 5d bd 3f b3 e0 be
       0.33575907 0.2354804 -0.05412268 -0.43886754
000050 82 fb ec 3d 89 e7 dd bd e7 6e 0d bf fb 8a 2b be
       0.11571409 -0.108351775 -0.5524735 -0.16752236
000060 b8 03 a4 3e b3 9c 24 bd 52 0b 3a bd f2 2b af bd
       0.32034087 -0.040188503 -0.045420952 -0.08553304
000070 88 a1 ce be 18 b6 d2 bd 27 a1 cf bd b4 94 34 bf
       -0.40357614 -0.10288638 -0.10138159 -0.705394
000080 63 ca 27 be 23 a4 ec 3d b1 07 92 be 6f e3 5a bd
       -0.16385798 0.11554744 -0.28521493 -0.053439554
000090 62 f1 58 be 19 bb 67 3e eb df 67 3e 96 e2 88 3e
       -0.2118583 0.22629966 0.22644012 0.2673537
0000a0 ca ca 1f 3c 10 ec 14 3d 6e 48 ad 3d 24 1d 81 3e
       0.0097529385 0.03635794 0.084610805 0.25217545
0000b0 14 c8 88 bd 3f c3 38 3d 93 da bf 3d 03 51 20 3f
       -0.06678787 0.045108076 0.093678616 0.62623614
0000c0 32 85 02 bf 0a c3 6f bf c5 0e 1f 3f 31 0f bf 3e
       -0.5098449 -0.9365698 0.6213191 0.37316278
0000d0 67 87 a9 be 80 70 5f bd 65 62 56 3e 18 2d 6b bd
       -0.33111116 -0.054550648 0.20935972 -0.05741605
0000e0 c3 98 24 be d6 bd a1 be cf b1 f2 be c7 e4 fb be
       -0.16073899 -0.31590146 -0.47401282 -0.4919798
0000f0 c4 14 a9 be 81 09 48 3e a9 e8 a9 3d e4 ca b9 3e
       -0.33023655 0.19534875 0.082963295 0.36287606
000100 cf ff 22 bf 9b 37 13 be 5d 38 de 3e b4 f9 08 bc
       -0.6367158 -0.1437668 0.43402377 -0.008360315
000110 bb 18 2d 3e 4f 7b 83 3e a2 12 bb be f1 bc 1e be
       0.16903965 0.25680014 -0.36537653 -0.15501763
000120 8a 0e b1 3e 2a d0 45 3e d9 f9 c3 be c4 f6 26 3f
       0.34581405 0.1931769 -0.38276556 0.65220284
000130 64 88 ac 3d 49 bc 52 bf 2f f8 fe 3d bb 3b 0c 3e
       0.08424452 -0.8231855 0.12449681 0.1369466
000140 6f b8 c2 be ca 90 e2 3d ae a3 68 3d f7 59 1a be
       -0.38031337 0.110627726 0.056796722 -0.15073381
000150 cb 38 00 3e f4 13 14 be ce c1 d1 3e 29 c6 d7 be
       0.12521665 -0.14460737 0.40968174 -0.42143372
000160 62 94 81 3e 92 68 4a 3d
       0.2530852 0.049416132

block_1.0.bias f4 [10]
000000 7f 15 56 bf 66 81 9c be 87 9c 38 bf 64 d6 67 bf
       -0.8362655 -0.30567473 -0.7211384 -0.9056151
000010 0c 25 02 be 09 f3 a1 3e 8e 07 35 bd b4 70 5c 3e
       -0.12709445 0.31630734 -0.044196658 0.21527368
000020 32 6c 7e 3e b5 0a ab bd
       0.2484596 -0.083516516

block_1.2.weight f4 [10, 10, 3, 3]
000000 7a a8 63 3e 83 f1 08 3e da 10 21 3e 73 97 41 3e
       0.22232237 0.1337338 0.15729085 0.1890543
000010 06 68 a4 3d a6 05 b4 3d c4 0c 17 3e bf 7d 14 3e
       0.080276534 0.0879014 0.14750963 0.14501093
000020 b5 ce e8 3d 1c ef 55 bd dd fc c4 3c 42 14 c2 bd
       0.11367551 -0.052229986 0.024046356 -0.0947652
000030 b4 04 90 bd 82 be 8e 3d 91 5e 50 bd c7 f5 a4 bc
       -0.07032147 0.0696993 -0.050871436 -0.020136727
000040 3c 75 a5 bc 10 48 80 bd 29 c6 3b 3e 0a 43 30 3d
       -0.020197503 -0.06263745 0.18337311 0.043032683
000050 1a 0c 40 3d e3 c1 0f 3e 74 65 8a 3d 1d 70 12 3e
       0.04688654 0.14038806 0.06757632 0.1430058
000060 b8 8a 00 3d 04 a8 49 bd 8b 34 54 bd ef 09 82 3e
       0.031382293 -0.049232498 -0.05180792 0.25398204
000070 62 46 a6 3e cd 92 75 3e c4 d0 55 3d 32 ba 23 3e
       0.32475573 0.23981781 0.052201048 0.15988997
000080 1f 9b 41 3e de 92 97 3d 50 c6 c1 3d 06 ea 1c 3e
       0.1890683 0.074010596 0.09461653 0.15323648
000090 0d 8f b9 3d 1d b9 fc bc 0e 43 0b 3e 3d 37 a6 3d
       0.09060488 -0.030849988 0.13599798 0.081160046
0000a0 21 3b 28 3d 46 2e b9 bc fc eb 5e 3d 57 a4 18 bd
       0.041072015 -0.022605073 0.05442427 -0.0372661
0000b0 88 10 00 bd fe 68 1c 3d e4 8e 3d 3d 85 45 04 be
       -0.031265765 0.038186066 0.04627885 -0.12917145
0000c0 ca 62 f4 3d e7 e6 53 3c c3 bb a6 bd 06 cc c3 bd
       0.11932905 0.012933469 -0.081412815 -0.09560399
0000d0 ad 66 f7 3c de 3f 47 bc df 73 22 3e 0d 00 f2 bc
       0.030200327 -0.012161223 0.15864514 -0.02954104
0000e0 0a f3 15 3e 2c ba 89 bb c8 12 4d 3d 99 04 61 bd
       0.14643493 -0.0042031016 0.05006674 -0.054936025
0000f0 e7 a1 95 bd 89 2e 7c bd 23 11 03 3e ee 32 4e bb
       -0.07306271 -0.061567817 0.12799506 -0.0031463462
000100 f9 9e c8 3d b3 28 52 bd fe 03 eb bd 07 0e 38 bd
       0.09795947 -0.051308345 -0.11475371 -0.044935253
000110 c6 2c 0a 3c be f8 18 3d 8d 33 22 3d 6d 21 54 be
       0.008433526 0.037346594 0.039599944 -0.20715876
000120 5a 2b c7 bc e6 59 1d bd c8 e5 13 bd 1a 53 88 3d
       -0.024312664 -0.038415812 -0.03610781 0.06656475
000130 78 31 b0 bd dc f1 ca bc df 58 82 bd a5 cf 63 bd
       -0.086031854 -0.02477353 -0.06364607 -0.055617947
000140 90 37 db 3c 26 02 8a 3d 07 a7 3b bd 72 0f c4 3d
       0.026759893 0.06738691 -0.045813587 0.095732585
000150 aa 62 b5 bd 05 73 dc bc 1c c8 a3 3d 92 35 75 bd
       -0.08856709 -0.026910314 0.07997152 -0.05986554
000160 83 7e 51 bb 84 50 87 bd 13 07 85 3d 1b ae 51 bd
       -0.0031966276 -0.06607154 0.0649549 -0.05119143
000170 2c 61 b4 bd e3 a4 59 bd 8e 45 9e 3c 6c 2e 2e be
       -0.088075966 -0.053135764 0.019320276 -0.17009896
000180 53 26 af bd e6 d6 c1 3c 3b a3 14 be c1 71 02 bc
       -0.08552232 0.023662042 -0.14515392 -0.007961691
000190 d2 b7 0b bd 31 fd 28 bd 4a 20 d9 bd 73 88 b0 bc
       -0.03411085 -0.041257087 -0.10601862 -0.021549439
0001a0 41 f5 67 3d 60 0f a5 bc d7 88 41 bd 1b d7 c9 bc
       0.056630377 -0.020148933 -0.04724964 -0.024638703
0001b0 d4 b5 03 be be f2 be bd 82 82 65 bd e6 51 f1 bd
       -0.1286233 -0.09323643 -0.056032665 -0.11783199
0001c0 ff 0d 3a be 7f 8d 3e be 11 59 7c bd f7 e2 9e bd
       -0.18169402 -0.18608664 -0.061608378 -0.07758134
0001d0 cf 00 01 be 2d 94 01 3e 4b 10 48 3d b0 bb 06 be
       -0.12597965 0.12654181 0.048843663 -0.13157535
0001e0 c2 68 4e bd 23 cb 12 3d 6e d3 01 be 33 02 79 bd
       -0.050392874 0.035838258 -0.1267831 -0.060793113
0001f0 e6 89 66 bd 09 50 e9 bd 83 a4 0b 3d eb 03 32 bd
       -0.056283854 -0.113922186 0.034092437 -0.043460768
000200 dd 67 9c 3d 05 dc 55 bd c7 19 ab 3b ec e0 d5 3d
       0.07636998 -0.05221178 0.0052215788 0.10443291
000210 3a 4d 5b bd 5f 6c 7e 3b 20 11 9b 3d 82 7a 4a 3d
       -0.053540446 0.0038821918 0.07571626 0.04943324
000220 71 39 15 3d d2 ca ed bd 1b ff 95 3d ca 3d ab 3d
       0.036431734 -0.116109505 0.07324048 0.08361395
000230 61 b6 9f be 21 81 7f 3d 6b 75 16 3e bc bf 83 be
       -0.31193832 0.062379006 0.14693229 -0.2573222
000240 1a 55 d3 3d 5b 39 94 3d f4 89 0c 3e 82 6f e5 3d
       0.10318966 0.07237502 0.137245 0.11202909
000250 b3 52 3b 3c cf c3 d7 3d e5 8b 7d 3d 58 30 96 3d
       0.011433291 0.105353944 0.061900992 0.073334396
000260 87 fd 8a 3d 6b 7f 8c 3d d5 98 0f bd cd d6 37 be
       0.06786638 0.068602405 -0.03505786 -0.17953034
000270 82 4b 77 bd 16 b1 09 3d a1 26 17 be 5c fc 1d 3b
       -0.060374744 0.033616148 -0.1476083 0.0024106717
000280 48 46 21 bd 84 58 27 3c f9 60 b9 3b 03 d7 8b be
       -0.039373666 0.010213975 0.005657312 -0.27312478
000290 ce 73 26 3e 6a b7 17 be 95 e0 76 be b8 37 09 3e
       0.16255113 -0.1481606 -0.24109109 0.13400161
0002a0 c1 67 ce 3a 47 a6 30 be 28 9a 78 3d c5 e7 97 3d
       0.0015747474 -0.1725093 0.06069389 0.074172534
0002b0 8e 4b 46 bd 14 14 87 3d 7f 5e 96 bc 92 a2 00 3e
       -0.0484119 0.065956265 -0.018355606 0.12562016
0002c0 1b b9 98 bc fe b7 81 bd 1a 39 03 3a 1e ba c6 bc
       -0.018642953 -0.06333922 0.0005005762 -0.02425867
0002d0 59 7b 2e 3d dc bf b4 3c 43 c1 96 bd ff 34 8f bd
       0.042598102 0.022064142 -0.073610805 -0.0699253
0002e0 69 4c 0f 3c 54 a7 c5 bd 7b 09 bb 3d 16 71 3c bd
       0.008746245 -0.09651056 0.09132668 -0.046006285
0002f0 c6 f3 40 3d a2 43 09 3e f1 66 a7 3d e0 13 a2 3d
       0.04710748 0.13404706 0.081739314 0.07913947
000300 d1 74 05 bd 32 52 3b 3e fa 4d de 3d 73 08 18 3d
       -0.032582108 0.18293074 0.108547166 0.037117433
000310 b4 aa 1e 3e ee 44 ee bb 44 01 14 be 12 15 18 bd
       0.15494806 -0.0072714007 -0.14453608 -0.03712947
000320 b3 12 77 3c 89 d9 86 bb 48 ca f2 bd 09 10 c7 3d
       0.015080142 -0.0041152877 -0.11854988 0.09719855
000330 84 39 12 bd 62 f9 57 3d 42 f8 83 bd 62 4d c1 bd
       -0.035699382 0.052728064 -0.06443836 -0.09438588
000340 47 c3 9a bd c0 bc b0 3d 63 bd c4 3d b7 f2 e2 bc
       -0.075567774 0.08629751 0.09606435 -0.027703626
000350 8e f0 e6 3d a9 60 a5 3d 4d b3 8c bd 3d 06 be 3d
       0.11276351 0.08075077 -0.068701364 0.092785336
000360 db e5 97 3d 16 3e 36 3e 28 1c 1d 3e 63 30 12 3a
       0.07416888 0.17797121 0.15342772 0.0005576668
000370 77 b1 bc 3b d9 e5 b9 3d 3e 14 0e 3e 77 88 42 3d
       0.00575846 0.09077043 0.1387491 0.047493424
000380 60 9d a0 bc d2 b1 7c 3c db 2c 80 be 14 60 16 3e
       -0.019606292 0.015423255 -0.25034222 0.14685088
000390 cb 0f 28 3d f2 21 d5 be 12 7f b3 3d 34 3c 4c 3e
       0.041030686 -0.4162746 0.08764471 0.1994484
0003a0 00 42 6e be fd 75 5a be 7c 12 8e 3d 6f fe 63 bb
       -0.23267365 -0.21334071 0.06937119 -0.0034789105
0003b0 ee 28 b7 3b df c4 53 3a fe b2 f8 3d eb 2a 34 bd
       0.005589596 0.00080783473 0.12143515 -0.043986242
0003c0 5e 42 25 bd 3f 99 e6 3d 09 f9 1f 3e 25 82 2d 3d
       -0.040346496 0.11259698 0.15622343 0.042360444
0003d0 2f b0 aa bd d6 f4 99 3d 0c 0a 7e bd 39 e0 5b be
       -0.083343856 0.07517402 -0.0620213 -0.21472253
0003e0 50 53 87 3d 2b 83 18 3d 6e 9b 60 be ef bd 4d 3e
       0.066076875 0.037234467 -0.21934292 0.20091985
0003f0 81 11 a0 be 34 f6 9d 3d 16 4e 5b 3d 72 1d 9a be
       -0.31263354 0.07712975 0.053541265 -0.3010059

block_1.2.bias f4 [10]
000000 6d 30 b8 3d bd 12 57 3e 4a 73 f8 3d dd f0 9b bc
       0.089936115 0.21003242 0.12131365 -0.019035751
000010 e2 f0 2b 3d bd 18 29 3e 21 7b 4c bd 75 09 8e bd
       0.04197777 0.16513343 -0.049922112 -0.069353975
000020 5b f5 05 3d e7 09 d4 3c
       0.032704692 0.025883628

block_2.0.weight f4 [10, 10, 3, 3]
000000 46 08 d3 bd bd 70 19 be bc 85 be 3d 36 c7 9f bd
       -0.103043124 -0.14984412 0.093028516 -0.07801668
000010 fb 3e 8b bd 34 76 60 3c 7d 89 24 be e1 a5 e5 bd
       -0.06799122 0.013700057 -0.16068073 -0.112132795
000020 a7 74 e0 bd db d3 f5 bd 56 e1 3f 3e 18 68 c7 3d
       -0.1095975 -0.12003299 0.18738303 0.09736651
000030 7f ed 1b be 53 ff 91 3d cd 69 28 bd 14 4b 12 be
       -0.15227316 0.07128777 -0.041116524 -0.14286453
000040 1c 89 ca bd 24 c5 09 be fd c5 a3 3d aa 28 5b 3e
       -0.09889433 -0.1345411 0.07996748 0.21402231
000050 9a 3f d2 3d 22 0c bf bd 0d 05 02 3e ba d1 10 bd
       0.10266037 -0.09328486 0.12697239 -0.03535626
000060 43 84 c9 bd 71 d7 20 be dd 0a f9 3c 0f 9e 4e 3d
       -0.0983968 -0.15707184 0.030400688 0.050443705
000070 31 89 5e bd 40 8f a0 3d 72 ec a1 bd 74 da 9b 3d
       -0.054330055 0.07839823 -0.079064265 0.07610026
000080 dd 12 36 bd 25 2c cb 3c 45 54 aa bc 70 8e 7e bd
       -0.044451583 0.024801323 -0.020792136 -0.062147558
000090 ef 75 93 3d a0 00 ab 3c 72 e5 22 bd c7 2e 4b 3d
       0.072002284 0.020874321 -0.039769597 0.049605157
0000a0 8a 30 98 3d b4 31 48 bd df e3 7c 3d 60 39 c6 bc
       0.07431133 -0.048875526 0.061740752 -0.02419728
0000b0 38 47 f2 bc 09 d8 13 be 82 03 c2 3c 36 da 87 3e
       -0.029574975 -0.1443788 0.023683313 0.2653367
0000c0 94 8a 28 be 19 ba 49 bc 04 5b 62 3c 72 88 f9 bd
       -0.16459113 -0.012312436 0.013815645 -0.12184228
0000d0 16 bc 01 bd 98 16 12 3e c8 5f 80 bd 59 98 ea bd
       -0.031673513 0.14266431 -0.06268269 -0.11454839
0000e0 3b ef 9c 3e eb c9 a5 3c 65 2c 0d bb b7 78 b5 3d
       0.30651268 0.020237884 -0.0021541354 0.08860915
0000f0 b9 66 26 be 39 b2 a1 bd a4 2e 90 3d 04 a2 59 bd
       -0.16250123 -0.078953214 0.07040146 -0.053133026
000100 11 d8 d2 3b 86 48 c5 3d c3 ab fe 3d ab 42 20 bc
       0.0064344485 0.096329734 0.12435105 -0.00978152
000110 d4 1f 4a bd eb ab 15 3e 9b 60 01 3e d3 3b d4 bd
       -0.04934676 0.14616363 0.12634508 -0.10362973
000120 67 2a 0d be c4 f3 bc 3d 4c a6 ec 3d 97 d8 5d bc
       -0.13785706 0.09226182 0.11555156 -0.013540409
000130 e6 25 64 3d 37 e9 3a 3e 5b d2 48 be 2b ba cb bc
       0.055700205 0.18253027 -0.19611494 -0.024869045
000140 a3 d7 9d 3d 15 a8 3a 3d 5e 93 82 bd 68 74 0b 3e
       0.07707145 0.04557045 -0.06375764 0.13618624
000150 bc a3 87 bd e8 bf 19 3d 21 5d 83 3c 9d f9 a2 bc
       -0.06623027 0.03753653 0.016035618 -0.019894416
000160 6d 8a e0 3c 72 1e f7 3d 25 a1 0d 3d 41 24 1c bd
       0.027409757 0.12066354 0.034577508 -0.038120512
000170 41 7f 3e be 24 57 d1 3d fd 33 e1 bc c0 9d ef 3c
       -0.18603231 0.10221699 -0.02749061 0.029250026
000180 77 00 19 3e 3e 1b 74 3d 63 b7 0c 3d d9 b7 ed bb
       0.14941584 0.059596293 0.03435458 -0.0072545824
000190 21 a0 94 b9 ff d4 17 be 26 02 60 3d 35 0e c2 bd
       -0.00028348065 -0.14827345 0.05468955 -0.09475366
0001a0 a1 46 f0 bd 44 d1 a1 3c ae 47 82 3d b2 4e 60 3b
       -0.117322214 0.019753106 0.06361328 0.0034226594
0001b0 9c 43 bc 3d c2 02 83 bd 38 1e 6e 3d aa 94 a8 3d
       0.09192583 -0.063970104 0.058134288 0.082314804
0001c0 04 a9 4e bd bb 48 7c bd 87 77 e5 bd e4 38 6c 3d
       -0.050454155 -0.0615928 -0.11204439 0.057671443
0001d0 78 43 15 be 3d c9 58 3d 92 50 8e bd 38 1a 00 be
       -0.14576519 0.05292629 -0.06948961 -0.12510002
0001e0 4d f9 ef bd ab 40 51 3d bb 27 86 bc 2b 6f 36 bd
       -0.11717472 0.051087063 -0.016376367 -0.04453961
0001f0 ab 01 ba 3c 0c df b8 bc c9 b6 ba bd cf 27 c0 3d
       0.022705873 -0.022567295 -0.09116895 0.09382593
000200 52 dc 0b bd 8d 6f 42 bd fb 9f 5d bd 9a c8 ef bc
       -0.03414566 -0.047469664 -0.054107647 -0.029270459
000210 91 ff ac bd e3 c3 3a 3d 82 91 26 3c 34 6c 60 bc
       -0.08447183 0.04559697 0.010166528 -0.013697673
000220 9b 10 d8 bd 3f 4e 1c be 2f f4 ec 3d 16 74 87 3c
       -0.10550042 -0.15264224 0.11570012 0.016534846
000230 90 e3 ab bd e8 c4 25 3d 07 50 25 be 95 8f 4b bd
       -0.083930135 0.040470988 -0.1614381 -0.049697477
000240 54 7e 21 3e 62 1c 3c be fc 6b 26 be a0 36 b5 3c
       0.15770847 -0.18370202 -0.1625213 0.022120774
000250 70 2e 87 3d d0 6d 86 be 43 7a 74 3e 1d ec 82 bd
       0.06600654 -0.26255655 0.23874764 -0.06392691
000260 f5 81 97 3d 31 8f 06 bd 79 eb c0 b9 12 d0 55 bc
       0.07397834 -0.0328514 -0.00036796535 -0.013050096
000270 ad d0 96 3c fc e7 93 3d 0d 01 9d 3d 75 92 ab 3c
       0.018410051 0.07221982 0.07666216 0.02094386
000280 9e b9 fb bd b9 17 08 be b9 0e cb 3c a0 33 a9 bd
       -0.12291263 -0.132903 0.024787294 -0.082618
000290 ef a0 33 be 01 52 e5 3a aa b6 91 bd 98 30 78 be
       -0.1754186 0.0017495753 -0.071149185 -0.24237287
0002a0 c4 b6 8d 3d 13 7d f1 bc 61 7a 23 be 40 cd 46 3e
       0.069196254 -0.029478585 -0.15964653 0.19414234
0002b0 63 e4 58 bd 80 e5 49 be a1 d1 99 3e 1b 63 45 3e
       -0.05295218 -0.19716454 0.30042747 0.19276087
0002c0 2f 73 1f be 6a 47 dc 3d d1 32 5d 3b 6c 45 e3 bd
       -0.15571283 0.10755809 0.0033752213 -0.110972255
0002d0 3e 75 7c bd 9b d3 6c bd df 26 cc 3d cb 35 30 3e
       -0.06163525 -0.05781899 0.099683516 0.1720802
0002e0 e0 d9 9b 3d 52 db 0e 3d ab 82 0a 3d 3c 4f e3 3d
       0.07609916 0.03487713 0.03381602 0.11099097
0002f0 08 63 60 ba a6 e5 f5 3c 59 22 f4 3d c4 f8 d7 3c
       -0.00085596787 0.030016731 0.11920614 0.026363738
000300 40 f7 f5 3d c9 fc 32 3e 72 eb 25 3e 61 8b 0c 3e
       0.1201005 0.17479242 0.16203097 0.13725044
000310 df 8d 39 3e a9 0f 12 ba d4 c3 0f 3d 1f 28 93 3d
       0.18120526 -0.00055717916 0.035098866 0.07185387
000320 0c 70 e5 bc 59 3f 0e be 30 43 64 3e 1a 7f 8c 3e
       -0.02800753 -0.13891353 0.22291255 0.2744072
000330 4b 4f d5 bd b5 01 fa 3d 5b 23 f1 3d e0 21 8c bd
       -0.104155146 0.12207357 0.11774322 -0.06842399
000340 4d d7 e9 3d c8 0d ee 3c f0 78 27 3d 42 dd bd bd
       0.114180185 0.029059306 0.04088682 -0.09270717
000350 2e 8c 3f bd 37 41 dc 3d 74 85 5a bc 14 0b aa bd
       -0.046764545 0.10754626 -0.013337482 -0.08302894
000360 92 d4 9c bd 72 08 d3 3d 51 a1 32 bd 13 b1 19 3c
       -0.07657732 0.10304345 -0.043610875 0.009380597
000370 40 d1 1b 3e 42 e5 ec 3d a0 20 b5 3c 3a b4 9f 3d
       0.15216541 0.11567165 0.022110283 0.07798047
000380 5c ee 07 3d e8 48 bb 3c 6b 9a 90 bc 76 60 3c 3d
       0.0331863 0.022861913 -0.017651757 0.04599043
000390 c3 d8 7c 3e 2d d8 7e bc 7e 63 be bd 43 dd 05 3e
       0.24692063 -0.01555447 -0.092963204 0.13072686
0003a0 cd a3 39 bd 3d 92 44 bc c0 13 09 bd d9 99 8f be
       -0.04532223 -0.011997757 -0.0334661 -0.28047064
0003b0 cc 8d 05 3e fc db 5e 3e 51 c4 7e be d1 d0 a6 bd
       0.13042372 0.21763605 -0.24879576 -0.08145297
0003c0 b7 e3 5a 3e 5d ec 91 bd f9 a6 1b be 30 d8 54 3d
       0.21375929 -0.07125161 -0.15200414 0.051963985
0003d0 4f 43 43 bd 85 d3 c7 3c e1 0c 96 3d 06 6a 14 3d
       -0.047671612 0.024392853 0.07326675 0.036233924
0003e0 4b 9f 16 3d 39 93 89 3d 60 e9 e1 3d 47 d1 8f 3d
       0.036773007 0.067175336 0.11030841 0.07022338
0003f0 4b c9 61 bd d0 41 95 bd 42 18 b6 3b 8b 27 95 bd
       -0.05512361 -0.07287943 0.005557091 -0.07282933

block_2.0.bias f4 [10]
000000 67 e5 55 bc da c9 d8 bb f0 9b 60 3d af 2d 6e bc
       -0.013055182 -0.0066158595 0.054836214 -0.014537259
000010 97 aa c7 bd 8d b2 ac 3c b5 41 54 3e c0 c9 1c bd
       -0.09749334 0.021081233 0.2072819 -0.03827834
000020 87 96 99 3e a0 cd 38 3d
       0.29997656 0.045117974

block_2.2.weight f4 [10, 10, 3, 3]
000000 a1 e3 9b bd ed 29 e1 bc 9b 07 53 bd f3 0f 00 3e
       -0.07611776 -0.027485812 -0.051520925 0.12506084
000010 92 aa 4c bd 59 ba 8f bd b7 75 2e 3d da 67 aa bd
       -0.049967356 -0.07017965 0.04259273 -0.08320589
000020 3f c2 93 bd 1a 9e 8b bd bb 6d d7 bd 84 81 1a be
       -0.07214784 -0.06817265 -0.10518976 -0.15088469
000030 a6 a6 3a bd 72 6f 7a be 2e 0c 6c 3c cb 55 da bd
       -0.045569085 -0.24456576 0.014407201 -0.10660895
000040 83 69 e4 bd d8 42 08 bd 4c 17 3b 3e 4f 78 8f 3e
       -0.11152937 -0.033266872 0.18270606 0.28021476
000050 71 3e 94 3c 02 8d 76 3d 3c 34 86 3e 91 f0 c1 3e
       0.01809618 0.06019307 0.26211727 0.3787885
000060 b9 57 31 be 7c a8 b1 bc 31 4a a0 bc 19 81 19 be
       -0.1731862 -0.021686785 -0.019566627 -0.14990653
000070 83 71 60 be f2 70 7b bd 9e e4 54 3d 23 c1 12 be
       -0.21918301 -0.06138701 0.05197584 -0.14331488
000080 30 6a 38 be 00 69 d6 bd 08 b3 83 3d a8 de df bd
       -0.18009257 -0.10469246 0.06430632 -0.1093114
000090 58 8a 46 3e 0c ff 53 be 30 63 1e be 9c 5b 14 3d
       0.19388711 -0.20702761 -0.15467525 0.036220178
0000a0 29 ce 12 3d 7b 6f b6 3c ff fe 83 bd 5b 70 78 bd
       0.03584114 0.022269955 -0.06445121 -0.060654026
0000b0 87 b5 19 3d 19 1e c1 3d c2 c1 1f be aa 38 8c be
       0.037526634 0.09429569 -0.15601256 -0.2738698
0000c0 24 f3 ff 3c ea f5 6a 3e 99 73 6d bd f1 97 cc bd
       0.031243868 0.22945371 -0.05797157 -0.09989918
0000d0 5e 69 d4 3d 93 b7 93 3e 75 ef fc 3d c2 76 f1 bd
       0.1037166 0.28850994 0.1235036 -0.117902294
0000e0 b7 09 5b 3e fa 80 1f 3e 4e 00 7e be 40 20 e4 bd
       0.21390425 0.15576544 -0.24804804 -0.11138964
0000f0 d0 cf 62 be 21 f9 1a be fb f9 78 be 1a a8 1a 3e
       -0.22149587 -0.15134098 -0.2431411 0.15103188
000100 3a 7d cb bd 98 cb 87 bd d9 a3 9f bd f8 f2 fe bd
       -0.099359944 -0.06630629 -0.07794923 -0.12448686
000110 74 be 2c 3d 27 6a 2a bd 79 90 1b be 03 7c 46 3d
       0.042173818 -0.04160514 -0.1519183 0.04845811
000120 43 b2 53 3e 59 43 96 bd 09 99 76 be 91 83 0a 3d
       0.2067347 -0.07337064 -0.24081816 0.033816878
000130 fb 1f 12 bd a9 6b b4 3e 90 31 04 3e 94 ca 18 be
       -0.03567503 0.35238388 0.12909532 -0.14921027
000140 49 f9 3a 3d 14 d2 42 bc d9 c6 76 bd a6 39 31 be
       0.045647893 -0.011890907 -0.06024823 -0.17307147
000150 41 77 aa 3c d7 af 93 bc 7b a2 75 bd df 4a ee 3d
       0.020808818 -0.018028183 -0.059969407 0.11635374
000160 63 c6 aa bd 17 6d b9 bd da 8f 20 bd c1 82 00 3e
       -0.083386205 -0.0905401 -0.039199688 0.12549879
000170 e8 01 8a ba 4f a7 d5 bb ee 44 bd 3d 17 1b 83 bd
       -0.0010529133 -0.006520189 0.09241663 -0.06401651
000180 3f c5 13 bd aa 33 34 bd e2 9f 99 bb 8f ac 32 bc
       -0.03607678 -0.043994583 -0.004688249 -0.010905399
000190 15 5d 32 be cc 8f 32 be 79 d5 24 bd 20 61 d9 bb
       -0.1741832 -0.17437667 -0.040242646 -0.0066338927
0001a0 f3 1e af be 40 d4 87 3d 76 8a ae 3d 9e 73 0d be
       -0.342033 0.0663228 0.08522503 -0.13813636
0001b0 e4 e6 d1 bd 42 5a 09 3c 2a 2c 08 3e bd 11 96 bd
       -0.10249117 0.008383336 0.13298097 -0.07327602
0001c0 c4 24 ca bd 8d a9 90 3e ac af e6 bc 6d fa a3 bd
       -0.09870294 0.28254357 -0.028159939 -0.08006749
0001d0 31 dd 7e bd 1b 84 a2 3d ec 46 d8 3d 9b e8 8c be
       -0.062222663 0.07935353 0.10560402 -0.27521214
0001e0 89 51 a6 3e 7b 0f 98 3d 16 b9 c6 be 76 8e 1c 3e
       0.3248408 0.07424828 -0.38813084 0.1528872
0001f0 7b ad f4 3d 36 9b 14 be 67 87 b0 3d a4 7d 25 3e
       0.11947151 -0.14512333 0.08619576 0.1616121
000200 e0 92 2e 3c a5 45 7b bd 80 6d d9 bc 5b 33 c7 bd
       0.010655135 -0.061345715 -0.026541471 -0.09726592
000210 5c 92 f3 bd d1 d0 f8 bd 62 d5 9c ba 31 7a 8b 3d
       -0.1189315 -0.121492036 -0.0011965449 0.068104155
000220 30 b2 8e 3d ea ba 0f bb b6 9c 7b 3e 7d 6c 82 3c
       0.0696758 -0.0021931478 0.24571499 0.015920872
000230 a0 09 d3 3c d2 26 03 be b6 de 25 bb 04 14 89 3d
       0.025761425 -0.12807778 -0.0025309748 0.06693271
000240 3c ec fa bc da 1e 99 3c 7c 49 07 be 7b 85 1d bb
       -0.030630223 0.018691469 -0.13211626 -0.002403586
000250 02 81 96 3a 3d fe f3 be 23 ea 38 bc fd c5 8c 3d
       0.0011482539 -0.47654906 -0.011286291 0.06873701
000260 8b ff a0 be 3f a6 30 3d be 0b 2b 3c 60 d6 de bd
       -0.31444964 0.043127295 0.010439811 -0.108807325
000270 c8 73 60 be 9e 3c 5a bd d1 31 23 be 6f 4a b6 ba
       -0.21919167 -0.053280465 -0.15936972 -0.0013907681
000280 fc ae 1b bc 86 e9 29 be 99 ae 5c 3d a4 71 2e be
       -0.009502169 -0.16592988 0.053877447 -0.17035538
000290 a5 8d 13 bd 9c 2a cc 3d 82 90 55 bd bd b1 91 3e
       -0.036023755 0.099690646 -0.052139767 0.28455916
0002a0 77 93 3e be 26 a3 00 3e c8 23 34 3e 21 13 1b bc
       -0.18610941 0.12562236 0.17591774 -0.00946501
0002b0 d5 73 01 be 8a f4 91 3d 46 f0 89 bd 4a 61 0e 3c
       -0.12641843 0.0712672 -0.06735282 0.008690188
0002c0 3f f6 c9 bd 2d 6e 7c bd 99 23 1a be 09 99 65 bd
       -0.09861421 -0.06162851 -0.15052642 -0.05605415
0002d0 51 b0 22 3e af 16 0a be f0 79 56 be fa 75 57 3e
       0.15887572 -0.13485216 -0.20944953 0.21041098
0002e0 96 81 fc bc 79 82 93 bd a8 25 15 bd 11 98 19 be
       -0.03082351 -0.0720262 -0.036412865 -0.14999415
0002f0 06 94 97 bd 92 93 15 3e f8 6d 97 bc dd bd 5b bc
       -0.0740128 0.14607075 -0.018485054 -0.013411966
000300 8a 6e a5 3d 37 5a d7 3d 82 42 ff bb cd eb 83 bd
       0.08077724 0.10515254 -0.007789911 -0.0644146
000310 2a e6 ab bd 55 8e be 3c ff 3b 64 bb d1 92 92 bd
       -0.0839351 0.023261229 -0.00348258 -0.07156909
000320 2d 28 be be e4 10 e7 3d f2 17 5e 3e 68 93 cb be
       -0.37140027 0.112825185 0.21688822 -0.397609
000330 56 20 20 3e 0d a6 2e bd 37 2c e8 bd aa ee f4 bd
       0.15637335 -0.042638827 -0.11336558 -0.11959584
000340 9f e3 4a 3e 0e 93 7a 3e b1 ad 40 be ce d1 87 bd
       0.19813393 0.2447016 -0.18816258 -0.06631814
000350 e2 43 ae 3d ef 60 9b bd 05 14 06 be 25 ce 0c 3e
       0.08509041 -0.07586848 -0.13093574 0.13750513
000360 1b dc 3a be 1e 48 d3 3d d6 63 00 bd a4 76 09 3d
       -0.18248026 0.1031649 -0.03134521 0.03356041
000370 72 33 d5 3d 9a 34 24 be 31 11 95 bc 0b 4c 4f be
       0.10410203 -0.16035691 -0.018196674 -0.20243852
000380 49 e1 1e 3d 80 d9 91 be 83 1f c3 bd 38 34 58 3e
       0.038789067 -0.28486252 -0.09527495 0.2111367
000390 5b da c4 3d 9c 9a 07 be dc 26 16 bd f6 35 8a 3b
       0.096119605 -0.13242573 -0.036658153 0.0042178584
0003a0 93 4f d0 bd b0 4d 25 be 99 1f 91 3e 5c 6d bd 3d
       -0.101714276 -0.16142917 0.2834442 0.09249374
0003b0 be 6c 37 3d 58 8e 2b bd bb 87 a8 bc ad 05 03 3e
       0.04478144 -0.041883796 -0.020572534 0.12795134
0003c0 15 ef ff bd 68 05 13 3d 01 09 2f 3e 09 3f 7f be
       -0.12496773 0.035893828 0.17093278 -0.2492639
0003d0 5d f5 80 be 7b 0a 3b 3e 36 42 47 3d 85 5d ee bd
       -0.25187197 0.18265717 0.048647128 -0.11638931
0003e0 35 94 22 3d 08 d7 df 3d 57 91 5e bc f4 bf 1b be
       0.039692122 0.10929686 -0.013584456 -0.15209943
0003f0 70 ad c5 3d 35 5c 33 be cd 18 68 bd 5e ff ff 3d
       0.09652221 -0.17515643 -0.056664277 0.12499879

block_2.2.bias f4 [10]
000000 a8 30 8b 3c 0d f9 f1 bd a5 a6 4b 3d 2d d3 38 3e
       0.016990975 -0.11815081 0.04971947 0.18049307
000010 09 4b c6 3d 0e d4 ce 3e 2a 2b 24 3e a9 87 c4 3d
       0.096822806 0.4039616 0.16032091 0.095961876
000020 b0 15 88 3d 45 c4 84 bd
       0.066447616 -0.06482748

classifier.1.weight f4 [10, 490]
000000 67 76 9b bd 1f dc 6e be 0c 9f ea 3d 81 7e 6b 3d
       -0.07590943 -0.23326157 0.11456117 0.05749369
000010 a9 e0 c7 bb 23 4f 20 3e cd 6c 92 3d d2 d5 a1 3d
       -0.0060997796 0.15655188 0.07149658 0.07902111
000020 b0 86 de 3d 0d 9e b5 bd 14 dd 8f bc 29 6c b4 bd
       0.10865533 -0.088680364 -0.017561473 -0.088096924
000030 3e 4c b4 bc ef 25 72 3c 7c a8 17 3d 24 a6 13 3e
       -0.022009011 0.014779552 0.037025914 0.14418846
000040 c9 75 23 3d 86 d7 25 be 23 e1 29 3d 8b 55 4e bd
       0.03990725 -0.16195497 0.041474473 -0.05037455
000050 6c d7 a4 bd 1e 8d fc 3d f7 01 cc bd 8e dc 82 3d
       -0.08048901 0.123316035 -0.09961312 0.06389724
000060 d8 f9 0b be 55 e3 2b 3d 2f 9b a3 3c 4a 08 96 bd
       -0.13669527 0.041964848 0.019971458 -0.073258
000070 2a f4 0a 3d 4e bb 61 3d 12 f5 89 3d 62 56 5f bd
       0.03392426 0.05511027 0.067361966 -0.05452574
000080 42 e5 f5 3b df 64 89 3d 07 39 f2 bc 67 85 dc bd
       0.0075041363 0.06708693 -0.029568208 -0.10767632
000090 e7 8d 13 3e 79 f7 41 3d 00 4e cf bd 62 8e b5 bc
       0.144096 0.04735515 -0.10122299 -0.02216262
0000a0 d4 7a af 3d 05 d0 33 bd e6 84 ee bd c6 e2 d6 3d
       0.085683495 -0.043899555 -0.11646442 0.10492472
0000b0 47 e7 74 bd 30 d6 b4 3b 0b 09 7e bb 88 80 19 bd
       -0.059790876 0.005518697 -0.0038762714 -0.037476093
0000c0 3d bc 1e 3d f9 9b d4 3d e2 48 08 3e 64 c0 08 3d
       0.038753737 0.10381312 0.13309053 0.033386603
0000d0 65 49 9f 3d 3f 81 16 3d c1 5a 3b bd 0b 66 d6 3b
       0.07777671 0.036744352 -0.045740847 0.006542926
0000e0 9f a3 48 3d 68 e6 90 bd 81 dc b4 bd 6e 98 92 b9
       0.048984166 -0.070751965 -0.0883112 -0.0002796086
0000f0 96 57 ab 3c 65 f0 6a 3d 5f d1 68 bd 0f df 1d 3c
       0.020915788 0.057358164 -0.056840297 0.009635701
000100 a9 55 9c bd b3 38 47 be 6c 1c f3 3b ff 6c 50 3c
       -0.07633526 -0.19455223 0.0074191596 0.012721299
000110 e4 8c 96 bd 29 e2 95 3d 05 7c cb bd 08 a8 d9 3b
       -0.073510915 0.07318527 -0.09935764 0.0066423453
000120 2b 95 23 be e0 25 c3 3d a5 66 33 3d 59 22 a3 3c
       -0.15974872 0.095287085 0.04379906 0.01991384
000130 70 44 06 3e bb 7d 7f 3d 83 17 a0 3d d9 bd 04 be
       0.13112044 0.062375765 0.078169845 -0.12963046
000140 28 71 92 bd ad ee 14 bd 05 bf 9e 3d 74 07 d6 3d
       -0.07150489 -0.03636043 0.07751278 0.1045064
000150 62 3f 86 bb ce 83 b1 bd 47 15 2c be e2 02 83 bd
       -0.0040969113 -0.08667718 -0.16804992 -0.06397034
000160 56 d7 29 bc fc 74 a0 bc 73 05 fc 3d 38 88 a1 3c
       -0.0103662815 -0.019587032 0.12305727 0.019718274
000170 23 0f ce bd 09 fa 9f bd 54 fe c4 bd 1e 89 d6 39
       -0.10061481 -0.07811362 -0.09618822 0.0004091942
000180 16 73 00 3c dc 2d 24 3e 36 b3 92 bd 62 16 09 be
       0.007839939 0.16033119 -0.07163088 -0.13387445
000190 aa 49 80 3d da 9d 8c bc 50 4e 5e 3d 07 ea a5 3d
       0.0626405 -0.017165113 0.054273903 0.08101278
0001a0 47 1f 29 3d be c9 05 bd 0d a0 d5 3d bf a2 b7 bd
       0.041289594 -0.0326631 0.10430918 -0.08966588
0001b0 89 d9 5d bd d4 12 5f bd fa ff 5f bc 45 52 92 3d
       -0.054162536 -0.054461315 -0.013671869 0.07144598
0001c0 d8 89 21 be 51 9f b6 3c 31 41 1f 3e 5b 4c 8a bb
       -0.1577524 0.022292765 0.15552212 -0.004220528
0001d0 77 0f be 3c 8d 14 b8 3d bc 55 51 bd 7a ae b3 bd
       0.023200734 0.08988295 -0.051107153 -0.08773513
0001e0 7b ee 85 bd c5 23 88 3d da d1 c7 bc 89 c0 c0 3c
       -0.06539627 0.066474475 -0.024392057 0.023529308
0001f0 47 46 62 be 4a 25 2a 3d 9a a7 88 bb ff 20 61 bd
       -0.22097121 0.041539468 -0.0041703703 -0.05496311
000200 5b 83 26 3d 65 61 60 3b df d7 1d 3e 6e 4f 06 3d
       0.040652614 0.003423774 0.1541438 0.032790594
000210 ea 2a fe 3b d8 53 90 3d 39 f9 da bd c7 6a 28 3d
       0.0077565806 0.07047242 -0.10692067 0.041117456
000220 96 ff 73 bc 53 e3 d0 3d ff db ec 3d 29 6a 44 3d
       -0.014892479 0.10199609 0.115653984 0.047952805
000230 70 10 ed 3d a2 7d 7d bc ae 1e ad 3d 19 99 98 3d
       0.11575401 -0.015471848 0.08453117 0.07451076
000240 6c 30 8d bd 8e 85 4a 3e a4 a6 ae bb e1 d6 dd bb
       -0.06894001 0.1977751 -0.0053299237 -0.0067700003
000250 c7 5f 50 3d 48 b6 b3 bb 7d 0b 02 3c a1 10 d2 3d
       0.05087259 -0.005484376 0.007937309 0.10257078
000260 41 61 3c 3d c4 16 2f bc a2 fc 8d 3a c9 0f 5d 3c
       0.045991186 -0.01068658 0.0010832737 0.013492533
000270 21 50 d4 bd 18 26 1a 3d 2a 6a e7 3d 99 aa 3a bd
       -0.10366846 0.037633985 0.11299546 -0.04557285
000280 7f 89 89 3c ba ec ce 3b 8f 8a d8 bd 71 e9 26 3d
       0.016789196 0.006314841 -0.10573303 0.04074997
000290 f0 7c 6a bd 25 5e c2 3d da cc 64 3d 3d 77 0c 3a
       -0.057248056 0.09490613 0.055859424 0.0005358344
0002a0 40 9c 2b 3d 8a be 5f bd 16 2e 10 bb 80 a1 82 ba
       0.04189706 -0.05462507 -0.0022000126 -0.0009966344
0002b0 c0 62 2c 3d bc 97 5f 3d 91 89 aa bc e0 9d 3e 3d
       0.042086363 0.054588065 -0.02081755 0.04653728
0002c0 5b b9 43 bc ee 28 d0 bb 5c c0 f6 3c a5 b4 3c bd
       -0.011946048 -0.0063525354 0.030121021 -0.046070714
0002d0 e5 cb bc bd ff 0b 83 bc 49 c1 f6 ba 12 7e 49 3c
       -0.09218577 -0.015996931 -0.0018825914 0.012298124
0002e0 33 b1 0e bd 67 d4 8e 3d c3 1e ab 3c d9 cf 3f bd
       -0.03483696 0.06974106 0.020888692 -0.04682908
0002f0 24 36 67 3d 8e d2 2a 3d e3 29 38 3e a4 32 17 be
       0.056448117 0.041704707 0.17984729 -0.14765412
000300 aa 6c 2d bc 23 ff c7 3d de eb eb bc 1a 46 78 3d
       -0.01058499 0.0976546 -0.028798994 0.06061373
000310 69 98 7d 3d 51 d3 47 bd 2e a9 e6 3d 56 18 1c bd
       0.061912928 -0.04878551 0.11262737 -0.038109146
000320 24 75 94 3e c4 13 ec 3d a9 19 b5 3d e5 5a 89 bd
       0.2899562 0.115272075 0.08842785 -0.0670679
000330 1e fb 4a bc 8a c7 a6 3c 8e 43 69 3d 3b 34 38 bb
       -0.012388973 0.02035882 0.05694919 -0.0028107304
000340 70 ad b5 3b e0 ba ab 3d 96 99 74 3d 7e cc 1a 3d
       0.005544357 0.08385253 0.059716783 0.037792675
000350 0f ac af 3c 8d 12 cf ba a7 11 d2 3d 98 ba ae 3d
       0.021444349 -0.0015798375 0.10257273 0.08531684
000360 45 63 6b 3d ef 5d b2 bd f5 d8 ca bc 91 18 68 bc
       0.057467718 -0.08709323 -0.024761656 -0.014166013
000370 25 e3 7f 3c 58 c3 97 3d 22 fb a1 bb 13 f5 f3 bc
       0.01561812 0.07410306 -0.0049432674 -0.029779946
000380 c7 7d ee bd 80 7c 25 3d 60 42 a9 3b 4e d3 be bd
       -0.11645084 0.040401936 0.005165383 -0.09317647
000390 d6 ca af bd dc 33 e3 bd 44 b3 91 bd db 32 00 3d
       -0.0858361 -0.11093876 -0.0711427 0.0312985
0003a0 69 63 0f 3d dd a8 c5 3c ec 4b 30 bd db 29 dd bd
       0.035006914 0.024128372 -0.043041155 -0.10798999
0003b0 fa 15 58 be a1 2c 08 be 6b 84 09 3c 3e 58 c5 bd
       -0.21102133 -0.13298275 0.008393387 -0.096359715
0003c0 93 2e 9c bd 44 6d c6 bd b8 68 d2 bc f2 8e 8c bd
       -0.07626071 -0.096888095 -0.0256847 -0.06863202
0003d0 f0 e7 90 bc 02 9f 89 3d 20 97 25 be 7b c9 e6 3c
       -0.017688721 0.067197815 -0.16170931 0.028172245
0003e0 8e 4e 6a bd 9e 80 e1 3d 4c 18 80 3e d3 74 36 bd
       -0.05720382 0.1101086 0.25018537 -0.044545006
0003f0 a8 f7 d4 3d b6 5d be 3d ac fc 4a 3d ac dc b7 3d
       0.10398799 0.09295218 0.049557373 0.08977637

classifier.1.bias f4 [10]
000000 32 65 f7 3c 10 d5 b5 bb 4f 4f 26 3d 13 2f 33 bc
       0.03019962 -0.0055490807 0.04060298 -0.010936516
000010 c4 9a 83 bd 7d 0c 62 bd be ef 1c bd 08 b8 6b 3c
       -0.064260036 -0.05518769 -0.038314573 0.014387138
000020 65 fb bd 3d cf 48 29 3d
       0.09276465 0.0413292
