models/fashion_mnist_model.pth (torch, 34976 bytes, 10 tensors)

block_1.0.weight f4 [10, 1, 3, 3]
0.27375415 0.24618709 -0.3010104 0.10857374 0.39472276 -0.51327664 0.4602414 -0.10683232
-0.37153983 -0.24202201 0.46385518 -0.23899588 -0.31112477 0.056442447 -0.07223684 -0.15435572
0.62996626 -0.42096776 -0.0034163757 0.023751374 0.37000772 -0.3816651 0.030732261 -0.24769315
-0.25330162 -0.09330774 0.27039424 0.3862426 -0.21387716 -0.38043475 -0.17751354 -0.2553659
-0.41273993 0.2938433 -0.26441586 0.051276736 -0.30948126 -0.61507636 0.056669414 -0.16161619
-0.2403553 -0.19125444 0.3898559 -0.3055982 0.21935314 -0.11256856 0.029054746 0.14961982
-0.5465027 0.28198728 0.11404316 -0.43641752 0.10729544 0.40619683 -0.026181052 -0.39405674
0.3154385 -0.37067306 -0.4710982 0.75260115 0.2644167 -0.36822972 0.22766729 -0.14409019
0.121292144 0.31194654 -0.5800693 -0.4932752 -0.013093013 0.07117048 -0.20027967 -0.19313753
0.17127782 -0.16088158 -0.22110744 0.17908409 -0.31863037 0.21642113 0.29975674 -0.04957576
-0.27681497 -0.18008791 -0.1081522 -0.15656304 -0.29121032 -0.36887014 -0.35504764 0.3504095
-0.052527186 0.3377562
00000000: 8129 8c3e 7818 7c3e 091e 9abe e95b de3d
00000010: 1a19 ca3e 1966 03bf c3a4 eb3e e7ca dabd
00000020: 783a bebe 9ed4 77be 6d7e ed3e 56bb 74be
00000030: bf4b 9fbe 3230 673d e9f0 93bd 6d0f 1ebe
00000040: 7845 213f 1689 d7be 46e5 5fbb 3e92 c23c
00000050: a771 bd3e 9c69 c3be 39c2 fb3c 46a3 7dbe
00000060: c0b0 81be 2118 bfbd 1d71 8a3e 97c1 c53e
00000070: 9d02 5bbe 58c8 c2be 1cc6 35be 52bf 82be
00000080: a652 d3be a172 963e 8461 87be 8e07 523d
00000090: 5474 9ebe a575 1dbf 301e 683d b77e 25be
000000a0: b31f 76be 34d8 43be 319b c73e 5e77 9cbe
000000b0: 1c9e 603e 588a e6bd 3804 ee3c f035 193e
000000c0: 9ae7 0bbf a360 903e 768f e93d 1e72 dfbe
000000d0: b6bd db3d 08f9 cf3e a579 d6bc cec1 c9be
000000e0: 2881 a13e dcc8 bdbe c933 f1be 78aa 403f
000000f0: a061 873e 9b88 bcbe 9d21 693e 618c 13be
00000100: 0468 f83d 75b7 9f3e 6c7f 14bf 918e fcbe
00000110: 1484 56bc d4c1 913d 1d16 4dbe d8c5 45be
00000120: 7463 2f3e 24be 24be fd69 62be d261 373e
00000130: 8523 a3be 809d 5d3e b779 993e f40f 4bbd
00000140: b1ba 8dbe f768 38be e77e ddbd 1052 20be
00000150: 8519 95be 8cdc bcbe cec8 b5be e068 b33e
00000160: bf26 57bd 61ee ac3e

block_1.0.bias f4 [10]
0.31439686 0.28242686 -0.14461178 -0.5954474 -0.7348557 0.24814987 0.23924513 -0.07938153
-0.18134584 -0.53533125
00000000: a0f8 a03e 419a 903e 1c15 14be 3e6f 18bf
00000010: 811f 3cbf 001b 7e3e adfc 743e c992 a2bd
00000020: b9b2 39be 780b 09bf

block_1.2.weight f4 [10, 10, 3, 3]
0.09806803 0.0877542 0.03544242 0.040039014 -0.06776194 -0.0798869 -0.09727973 -0.16609354
-0.01653642 -0.046544835 0.056392007 -0.13194264 0.17189525 0.044805847 0.1331618 0.12223915
0.12495969 0.10916473 0.05791651 0.056362733 0.121323794 0.07560849 0.16611934 -0.016399512
0.12583074 0.0729916 -0.03868867 0.13660733 0.08423008 -0.029751498 0.036901798 0.17328227
0.06713986 0.14407068 0.023304254 -0.011155682 0.07634845 0.05803792 0.08039081 0.17036304
0.12732089 0.098449856 0.1706661 0.06169892 -0.03283842 -0.14346023 -0.0066904295 -0.109397255
0.06379153 0.041514296 -0.0005907232 0.02983583 0.028895646 -0.10795259 0.08495797 0.014856315
-0.025528394 0.14429812 0.1505919 0.23443243 0.11213341 0.19168727 0.0040023606 -0.17664988
-0.16445188 0.01178835 0.19388686 0.23414324 0.122660354 0.02336813 0.0852284 0.13801675
-0.046277426 0.034152444 0.118030556 0.13618492 -0.04329942 -0.031241857 0.08685845 0.07044381
-0.025679609 0.12012456 0.04831546 0.0567759 0.15735379 0.14516424 0.027840812 0.079795144
-0.00021641466 -0.04586199 -0.011708135 0.012725524 -0.12203461 0.1604808 0.2593562 -0.19803855
0.18009226 0.03067288 -0.10050488 -0.021677068 0.11397021 0.03816392 -0.1347924 0.11807546
-0.09319152 -0.21603546 0.025398893 0.042892683 -0.1353337 -0.08992495 -0.0010766931 0.038337633
-0.0072056074 -0.07197464 -0.10938273 0.07188937 -0.10252447 -0.0037378543 0.07955852 -0.015726747
0.009361425 -0.07225636 -0.005927486 -0.005991182 0.0427054 -0.088591315 0.04824506 0.07935992
0.13994072 0.035921104 -0.07037882 0.092802584 -0.09645603 -0.19427644 -0.056143347 0.088372245
-0.061155908 0.013146462 0.09416035 -0.07076611 -0.055937447 -0.03455225 0.0055266535 -0.00096965773
0.04537248 -0.08893191 0.1947276 0.008996453 -0.23604117 0.09159903 -0.076612666 -0.07169932
0.08307051 -0.0030114616 0.1519761 0.10196804 -0.03390169 -0.06399 -0.08094644 -0.12196216
-0.09064509 -0.0070200027 -0.044661604 -0.0008156335 0.02836543 0.024079673 0.081650525 -0.10830013
0.10325576 0.009536783 0.021067012 0.038520563 0.058287498 0.18793166 0.026673678 0.06737004
0.06730988 -0.10659227 -0.13548504 -0.07680065 -0.095955916 0.1304804 -0.032015573 -0.08186484
-0.13380641 0.082117185 0.04861451 -0.14546236 0.09027309 -0.041193403 -0.07696199 0.11830387
-0.12885629 -0.16719776 0.08562328 0.038092226 -0.08288361 -0.063742325 0.060862746 0.051045425
0.0058307005 0.08125686 0.12371989 0.03820711 0.055083625 0.07344646 0.0062676044 -0.009977177
-0.058074385 -0.039438583 -0.03686201 -0.10752578 0.06476826 0.0651802 -0.12216019 -0.103727035
-0.06812217 -0.1201343 -0.13412945 -0.017863749 0.046538282 -0.0009007115 0.13540596 -0.004197781
0.00801311 -0.06544949 -0.0029188513 -0.038505755 0.056117505 0.09310153 -0.013089882 0.002558344
0.050795276 0.09150228 -0.024215888 -0.038534943 -0.18447883 0.11898622 0.115596324 -0.21136096
0.063798115 0.17006901 -0.1067714 0.056091245 -0.062502116 -0.089638956 0.16215923 0.011013202
-0.086060606 0.16794093 0.050604604 0.019627102 -0.0855431 0.09627446 0.09551447 0.057008144
00000000: e4d7 c83d 79b8 b33d 122c 113d f3ff 233d
00000010: c6c6 8abd be9b a3bd 983a c7bd 6d14 2abe
00000020: 6377 87bc cca5 3ebd 4efb 663d f91b 07be
00000030: 4f05 303e 5686 373d 915b 083e 8558 fa3d
00000040: deea ff3d c291 df3d dd39 6d3d 9cdc 663d
00000050: 9c78 f83d a0d8 9a3d 301b 2a3e 4558 86bc
00000060: c6d9 003e 9f7c 953d 0378 1ebd cbe2 0b3e
00000070: d280 ac3d 6ab9 f3bc 5726 173d e870 313e
00000080: 9f80 893d 4487 133e 90e8 be3c 52c6 36bc
00000090: 935c 9c3d 2cb9 6d3d f0a3 a43d a673 2e3e
000000a0: 6860 023e 14a0 c93d 18c3 2e3e 02b8 7c3d
000000b0: 9481 06bd 3de7 12be 643b dbbb ab0b e0bd
000000c0: 22a5 823d e50a 2a3d c3da 1aba 456a f43c
000000d0: 90b6 ec3c 3f16 ddbd 72fe ad3d e767 733c
000000e0: ec20 d1bc e3c2 133e c334 1a3e 0e0f 703e
000000f0: 34a6 e53d ab49 443e 3c26 833b b5e3 34be
00000100: 1366 28be ec23 413c 478a 463e 3fc3 6f3e
00000110: 5a35 fb3d 856e bf3c 3a8c ae3d 4354 0d3e
00000120: 668d 3dbd 6fe3 0b3d 01ba f13d 0f74 0b3e
00000130: bc5a 31bd ecee ffbc d8e2 b13d d844 903d
00000140: 0b5e d2bc de03 f63d 6fe6 453d d98d 683d
00000150: 5a21 213e efa5 143e 6a12 e43c a36b a33d
00000160: 5eed 62b9 c8d9 3bbd 7ad3 3fbc b77e 503c
00000170: 48ed f9bd 1455 243e 56ca 843e 9eca 4abe
00000180: 1b6a 383e b145 fb3c 81d5 cdbd 1b94 b1bc
00000190: 3769 e93d c551 1c3d 0507 0abe 8cd1 f13d
000001a0: 32db bebd 6638 5dbe 5711 d03c 3db0 2f3d
000001b0: eb94 0abe 922a b8bd d31f 8dba ec07 1d3d
000001c0: 041d ecbb 7167 93bd 0e04 e0bd bc3a 933d
000001d0: 59f8 d1bd caf6 74bb 94ef a23d 61d5 80bc
000001e0: aa60 193c 24fb 93bd 5b3b c2bb ad51 c4bb
000001f0: dceb 2e3d 5d6f b5bd 9d9c 453d 7487 a23d
00000200: 9f4c 0f3e 0222 133d c522 90bd 480f be3d
00000210: bd8a c5bd 67f0 46be 91f6 65bd 82fc b43d
00000220: 9e7e 7abd 4264 573c 24d7 c03d d3ed 90bd
00000230: aa1e 65bd a986 0dbd ee18 b53b a130 7eba
00000240: 7ed8 393d ef21 b6bd ac66 473e dc65 133c
00000250: c7b4 71be 4698 bb3d 1ae7 9cbd 18d7 92bd
00000260: df20 aa3d f15b 45bb 9f9f 1b3e 9fd4 d03d
00000270: 80dc 0abd 300d 83bd 3fc7 a5bd 4cc7 f9bd
00000280: 22a4 b9bd 0d08 e6bb 16ef 36bd 3dd0 55ba
00000290: 9e5e e83c bc42 c53c 6438 a73d 75cc ddbd
000002a0: c277 d33d 2b40 1c3c ba94 ac3c bdc7 1d3d
000002b0: dfbe 6e3d 2871 403e c282 da3c 4ef9 893d
000002c0: c3d9 893d 0c4d dabd 97bc 0abe a949 9dbd
000002d0: 8984 c4bd a79c 053e c322 03bd c1a8 a7bd
000002e0: 8c04 09be 0e2d a83d 0220 473d 16f4 14be
000002f0: 19e1 b83d 6aba 28bd 3f9e 9dbd 4d49 f23d
00000300: e7f2 03be e435 2bbe 425b af3d 9806 1c3d
00000310: e2be a9bd 568b 82bd 374b 793d 0215 513d
00000320: 760f bf3b ff69 a63d db60 fd3d 0f7f 1c3d
00000330: 5e9f 613d 196b 963d 7a60 cd3b 5077 23bc
00000340: 68df 6dbd 5a8a 21bd 9efc 16bd 7a36 dcbd
00000350: 39a5 843d 327d 853d 1f2f fabd d76e d4bd
00000360: a383 8bbd f908 f6bd 3b59 09be ff56 92bc
00000370: ed9e 3e3d ba1d 6cba dca7 0a3e 8a8d 89bb
00000380: 6b49 033c 620a 86bd 334a 3fbb 36b8 1dbd
00000390: 78db 653d 04ac be3d f276 56bc e4a9 273b
000003a0: b50e 503d 8c65 bb3d 6660 c6bc d1d6 1dbd
000003b0: 05e8 3cbe 0caf f33d c4bd ec3d 026f 58be
000003c0: 96a8 823d 9226 2e3e f7aa dabd efbf 653d
000003d0: 1c01 80bd a194 b7bd 120d 263e b870 343c
000003e0: 8b40 b0bd b5f8 2b3e c646 4f3d 04c9 a03c
000003f0: 3931 afbd 8b2b c53d 179d c33d 5f81 693d

block_1.2.bias f4 [10]
-0.11939302 0.21162403 0.08520587 0.1556305 0.1145251 -0.06435509 0.029078064 -0.0047935024
0.1730984 0.02393017
00000000: 5484 f4bd f8b3 583e 6a80 ae3d 9a5d 1f3e
00000010: 238c ea3d 9acc 83bd 1f35 ee3c d012 9dbb
00000020: b540 313e 3409 c43c

block_2.0.weight f4 [10, 10, 3, 3]
0.19328237 -0.13993679 -0.010572699 0.15965766 -0.2025841 -0.16687799 0.010897286 -0.12130638
-0.14715633 -0.043935154 0.14429094 0.0015301153 0.051698316 0.031119011 0.07692554 -0.046729695
-0.124429256 0.005422187 0.02153135 -0.07238045 0.00091657817 0.14040257 0.12496762 0.066171154
0.081967175 0.09664149 0.028937902 0.090027265 0.11667135 0.036016617 0.21963033 0.017562972
0.00502259 0.10232248 0.055253148 -0.13617748 -0.027996708 0.10921082 -0.19545467 0.0045587057
0.07495807 0.1055015 0.046919003 0.031146295 0.20940934 -0.017601006 0.012412497 -0.045034528
0.050446004 -0.15543114 -0.046768557 0.17767325 -0.023272911 0.0752262 -0.10999147 0.07443294
0.10135717 0.1864513 0.0053500133 0.17187731 0.16830277 -0.10765471 0.1114197 0.05385813
0.07010932 0.18626666 0.17350377 -0.048121262 0.09905881 0.4152638 -0.16505836 0.028367031
-0.12272152 -0.0063642017 0.0061156778 -0.0319593 0.19053824 0.13116133 0.14891271 -0.028287387
0.075226404 -0.036761217 -0.022166694 0.11830918 0.013616809 -0.072525546 -0.08966445 0.034809608
-0.046988983 -0.14431417 -0.038856056 0.0116250245 0.07640454 0.07341255 0.06629695 -0.09850563
-0.109528996 0.038019724 -0.08067198 0.020697296 0.08682023 -0.07940791 0.03930974 0.0046456465
0.05090168 -0.060907077 0.0805451 0.02010894 0.0026355486 0.08689606 0.14975396 -0.045031212
0.0048524104 0.011033834 -0.13054247 -0.009227872 -0.06277052 0.103149235 0.049725212 0.14986764
0.04080696 0.08622127 0.1006868 0.022580186 -0.07854241 -0.14635657 -0.08794195 0.08486511
-0.017373674 -0.04763813 0.08047251 0.082324825 -0.05575452 0.09317552 -0.09723681 0.08027648
-0.020119451 0.03394774 -0.05326812 0.13664526 -0.054657985 0.083832264 0.11672711 -0.04804034
-0.08150763 0.16589002 -0.013492232 -0.019446002 0.08599732 0.037593853 0.07601214 0.004771896
0.08950548 0.039755676 -0.040566623 -0.14864592 0.071564995 0.03646832 -0.08242121 -0.021043075
-0.025964566 -0.07676841 0.06218575 0.05149979 -0.08387196 -0.033221345 0.13253662 0.06549464
0.110752136 0.019529756 0.09584365 -0.021111123 0.13724191 -0.06758089 0.023838481 -0.023855643
0.07886436 0.0594926 0.0874392 0.1088483 -0.1852961 -0.14776392 -0.054339968 -0.018974846
0.015414526 0.06720249 -0.027158415 0.059214868 0.10004955 0.0059697977 0.009599784 -0.09062372
0.21953252 0.10936729 0.030177208 -0.00019839914 -0.020573229 -0.15153377 0.042950217 0.05694334
-0.15953031 0.1044951 0.0965772 0.09445956 0.04581715 -0.10508481 0.055787366 0.084635444
-0.03838143 -0.10121279 -0.04333665 -0.09232845 0.055265065 -0.09519196 -0.09393012 0.09323445
0.008360191 0.021044543 -0.027762808 0.20582725 0.18420583 -0.04739806 0.0034001523 0.11436645
0.02646848 -0.04997456 -0.11217098 0.08124436 0.057909593 0.14238049 0.07147108 0.14325076
0.08469776 -0.05073583 0.030990776 0.0116465585 0.04300133 0.06108643 0.15549283 0.060105424
0.15423243 0.16525178 -0.046283513 0.04233894 -0.009903197 0.008211483 -0.0155076785 0.13076644
0.03522637 0.22872978 0.088744104 -0.12694113 -0.0039242106 -0.020975932 -0.210765 -0.0009711601
00000000: d0eb 453e 974b 0fbe 1d39 2dbc 4c7d 233e
00000010: 3572 4fbe 10e2 2abe 888a 323c 7b6f f8bd
00000020: 26b0 16be 59f5 33bd 01c1 133e 268e c83a
00000030: 9dc1 533d 4ced fe3c 238b 9d3d a367 3fbd
00000040: c4d4 febd 9aac b13b 8462 b03c 343c 94bd
00000050: 8546 703a b1c5 0f3e 06ef ff3d be84 873d
00000060: 68de a73d f9eb c53d 2e0f ed3c 3760 b83d
00000070: 64f1 ee3d 2986 133d c6e6 603e 39e0 8f3c
00000080: 8a94 a43b 738e d13d 2051 623d 1c72 0bbe
00000090: 5a59 e5bc eca9 df3d 4525 48be 3261 953b
000000a0: 9e83 993d 2c11 d83d 242e 403d 8426 ff3c
000000b0: 676f 563e fc2f 90bc c95d 4b3c 2076 38bd
000000c0: 78a0 4e3d 5729 1fbe 6390 3fbd faef 353e
000000d0: d5a6 bebc 3210 9a3d 3543 e1bd 4c70 983d
000000e0: 5994 cf3d 17ed 3e3e 2a4f af3b 9b00 303e
000000f0: 9057 2c3e 137a dcbd 0330 e43d 589a 5c3d
00000100: 7a95 8f3d b0bc 3e3e f9aa 313e cd1a 45bd
00000110: 58df ca3d 759d d43e 0f05 29be fa61 e83c
00000120: 6c55 fbbd cb8a d0bb 0666 c83b c1e7 02bd
00000130: 751c 433e 284f 063e 937c 183e f3ba e7bc
00000140: 4d10 9a3d ee92 16bd ed96 b5bc 154c f23d
00000150: 0919 5f3c 4688 94bd ffa1 b7bd 8594 0e3d
00000160: 8577 40bd 18c7 13be 8727 1fbd e376 3e3c
00000170: fc79 9c3d 5259 963d b2c6 873d 52bd c9bd
00000180: bd50 e0bd 92ba 1b3d 5a37 a5bd 608d a93c
00000190: cece b13d 9da0 a2bd 4003 213d 823a 983b
000001a0: 487e 503d b379 79bd d4f4 a43d 81bb a43c
000001b0: 2bb9 2c3b 90f6 b13d 1a59 193e a672 38bd
000001c0: f800 9f3b 41c7 343c edac 05be 8030 17bc
000001d0: d58d 80bd e83f d33d aaac 4b3d e776 193e
000001e0: 3325 273d c794 b03d e234 ce3d 15fa b83c
000001f0: d8da a0bd 7fde 15be e91a b4bd c2cd ad3d
00000200: 3c53 8ebc 3320 43bd c5ce a43d eb99 a83d
00000210: da5e 64bd cfd2 be3d 1824 c7bd ff67 a43d
00000220: 8cd1 a4bc c90c 0b3d ac2f 5abd bcec 0b3e
00000230: 0de1 5fbd 40b0 ab3d a00e ef3d f3c5 44bd
00000240: 79ed a6bd 13df 293e 860e 5dbc 394d 9fbc
00000250: 5d1f b03d 03fc 193d 41ac 9b3d 915d 9c3b
00000260: a64e b73d d9d6 223d 3029 26bd a336 18be
00000270: ab90 923d ce5f 153d 74cc a8bd 8762 acbc
00000280: a4b3 d4bc c238 9dbd 7cb6 7e3d 72f1 523d
00000290: 10c5 abbd 1b13 08bd aeb7 073e 0e22 863d
000002a0: 04d2 e23d defc 9f3c ad49 c43d 3cf1 acbc
000002b0: 2589 0c3e da67 8abd eb48 c33c e96c c3bc
000002c0: a383 a13d 83ae 733d 5313 b33d dceb de3d
000002d0: 43be 3dbe 6d4f 17be 9693 5ebd 2371 9bbc
000002e0: 358d 7c3c 76a1 893d 537b debc 4a8b 723d
000002f0: c7e6 cc3d 4b9e c33b 6a48 1d3c ee98 b9bd
00000300: 22cd 603e f5fb df3d 3136 f73c 5d09 50b9
00000310: 3089 a8bc ab2b 1bbe 91ec 2f3d 6b3d 693d
00000320: ea5b 23be 8701 d63d 44ca c53d 0474 c13d
00000330: c4aa 3b3d b436 d7bd 4b81 643d 5955 ad3d
00000340: d935 1dbd a748 cfbd c581 31bd b316 bdbd
00000350: 9f5d 623d 01f4 c2bd 6f5e c0bd b4f1 be3d
00000360: 2ff9 083c 9b65 ac3c d46e e3bc 61c4 523e
00000370: 74a0 3c3e 7824 42bd 17d5 5e3b f538 ea3d
00000380: 6dd4 d83c 20b2 4cbd e6b9 e5bd 7163 a63d
00000390: 9c32 6d3d 31cc 113e 6e5f 923d 54b0 123e
000003a0: 0576 ad3d 60d0 4fbd 5ee0 fd3c 35d1 3e3c
000003b0: 2a22 303d c435 7a3d 8339 1f3e 1b31 763d
000003c0: 1bef 1d3e c337 293e c893 3dbd 996b 2d3d
000003d0: 0541 22bc 7589 063c eb13 7ebc a3e7 053e
000003e0: 8749 103d 2438 6a3e 78bf b53d dbfc 01be
000003f0: aa96 80bb b8d5 abbc c8d2 57be 7395 7eba

block_2.0.bias f4 [10]
-0.040361468 0.08490262 -0.011387839 0.1870269 0.048815038 0.0700364 -0.015637748 0.33768618
-0.006264981 0.09010726
00000000: 1152 25bd 6de1 ad3d 0f94 3abc fb83 3f3e
00000010: 47f2 473d 3e6f 8f3d bc1a 80bc 34e5 ac3e
00000020: 784a cdbb 288a b83d

block_2.2.weight f4 [10, 10, 3, 3]
-0.081057645 0.07257615 0.06252717 -0.0785937 -0.0020875703 0.08063129 -0.080736496 0.07297518
0.14875095 0.011390403 -0.1219307 -0.043091033 -0.067293376 0.022436617 0.07336312 0.052086923
0.00015614461 -0.018203001 -0.03975784 -0.11619912 0.017724 -0.0018547758 -0.12358086 0.0776893
-0.044616167 0.0045492137 -0.054374285 -0.101726286 0.06067622 0.21481682 -0.014221989 -0.084909245
0.05978129 -0.07422847 0.08315638 -0.039161216 -0.123275675 0.0049648397 -0.11988265 0.05572234
0.039150782 -0.12407368 -0.045134816 0.07216207 -0.09119179 0.10815078 0.052989587 -0.077024266
0.00065027294 -0.0065645743 -0.094900414 0.10585848 -0.053386338 0.0044950563 -0.016950352 -0.05829963
-0.058951586 -0.0153161455 0.100328214 0.08860582 -0.12349894 0.10231178 -0.022418609 -0.008577635
0.068493046 -0.09414685 -0.041219417 0.06265623 -0.14286815 -0.096984915 -0.008035578 -0.094165444
0.08823354 -0.11849097 0.08669516 -0.07802313 -0.06922006 0.036111712 -0.10553635 0.09197294
0.06318878 0.084311254 -0.05334601 -0.041858472 0.055957578 0.042716373 -0.07345 0.05604976
-0.024313465 -0.08848303 -0.15147927 0.19597732 0.18584149 -0.118716456 0.10914661 0.26101172
0.13663979 -0.13920777 0.07192654 -0.08516932 0.08774168 -0.026128318 0.016735267 0.009537366
0.052760452 0.10753258 0.1070297 0.042035732 0.20885912 -0.078668915 -0.048555188 -0.045416266
-0.13420574 0.017566111 -0.14144415 0.13163054 -0.044675834 0.07033702 0.08316728 0.033813898
-0.030477751 -0.13038144 -0.15120822 0.11315549 -0.036275744 -0.1029635 0.03617673 -0.13140818
-0.10175067 0.07408157 -0.12975363 -0.27137023 -0.09269688 -0.0434923 -0.03426956 0.036187742
0.00027324757 -0.098693736 -0.0014317736 -0.086158104 -0.08102857 0.053684868 -0.066667095 -0.021107877
-0.10559505 0.1078081 0.23714502 -0.132685 0.00498378 0.10587183 0.07575637 0.032253176
-0.05970159 0.12053644 0.053724118 0.0024492769 0.27349788 0.0450786 0.1675304 -0.046997014
-0.034684215 0.15089884 0.024428131 0.0011908499 -0.03516045 0.13748759 -0.11456344 0.06737593
0.08120524 0.009818555 -0.004407033 0.14569639 -0.33113608 -0.19858393 0.16483451 -0.069943644
-0.17221668 -0.09377823 -0.054692898 -0.002550903 0.07194694 0.033870384 0.25870737 0.23315948
0.041470446 0.09345346 -0.011000482 0.21242592 -0.199271 0.07277992 0.069443956 -0.0094077
-0.06373051 0.047402333 -0.09799022 -0.05729302 0.09087803 -0.10871807 0.2589842 0.06652953
-0.114918984 -0.104953565 0.022802044 -0.02143638 0.013070975 0.059161544 0.0489915 0.10900094
-0.11034427 0.03189547 0.058406543 -0.06421292 -0.009501756 -0.10717869 0.08800545 -0.18467611
-0.03801795 0.043611687 -0.2287921 -0.116992116 -0.058169533 -0.17990163 -0.007539536 0.039936975
0.032899067 -0.10690664 -0.030014865 0.08249418 -0.08540839 -0.08268105 0.011413025 -0.097932175
-0.058015645 0.023778073 0.14402264 -0.049224336 0.029088737 0.1900534 -0.09142399 -0.00029912393
0.115179814 -0.07512653 -0.021218741 -0.026845688 -0.17595191 0.03333907 -0.14527787 -0.053685576
0.07449891 -0.15706594 -0.00777291 0.01586875 -0.1700076 -0.05789947 -0.016220247 -0.097831585
00000000: 8d01 a6bd cea2 943d 3f0e 803d bcf5 a0bd
00000010: 9ecf 08bb 0522 a53d 2d59 a5bd 0374 953d
00000020: 2b52 183e d09e 3a3c ceb6 f9bd 3980 30bd
00000030: 1cd1 89bd ffcc b73c 673f 963d 1959 553d
00000040: c0ba 2339 761e 95bc 1ed9 22bd cef9 edbd
00000050: ec31 913c f31b f3ba f617 fdbd 911b 9f3d
00000060: 71bf 36bd 9211 953b 92b7 5ebd df55 d0bd
00000070: a187 783d f1f8 5b3e 5803 69bc e6e4 adbd
00000080: 3add 743d 1905 98bd e44d aa3d 8367 20bd
00000090: f577 fcbd 18b0 a23b 0985 f5bd 1c3d 643d
000000a0: 925c 203d 571a febd 49df 38bd b5c9 933d
000000b0: c3c2 babd 287e dd3d 9c0b 593d e6be 9dbd
000000c0: 1477 2a3a a41b d7bb 265b c2bd 55cc d83d
000000d0: a2ab 5abd 444b 933b 77db 8abc 98cb 6ebd
000000e0: 3877 71bd 92f0 7abc e178 cd3d f876 b53d
000000f0: 03ed fcbd d788 d13d 3ba7 b7bc 3589 0cbc
00000100: 1546 8c3d 10d0 c0bd b1d5 28bd e951 803d
00000110: 074c 12be 07a0 c6bd a8a7 03bc d0d9 c0bd
00000120: c9b3 b43d 65ab f2bd 3b8d b13d 97ca 9fbd
00000130: 3fc3 8dbd e0e9 133d 7123 d8bd 4f5c bc3d
00000140: 1e69 813d 61ab ac3d 5981 5abd ca73 2bbd
00000150: c633 653d 5df7 2e3d f46c 96bd 6f94 653d
00000160: 082d c7bc 9736 b5bd 621d 1bbe 47ae 483e
00000170: 3b4d 3e3e 9d21 f3bd 4288 df3d 54a3 853e
00000180: 4deb 0b3e 7b8c 0ebe 394e 933d 416d aebd
00000190: e9b1 b33d 0e0b d6bc 6618 893c 9d42 1c3c
000001a0: 581b 583d 0b3a dc3d 6332 db3d a92d 2c3d
000001b0: 2adf 553e 2b1d a1bd cee1 46bd 6806 3abd
000001c0: 3b6d 09be cee6 8f3c bcd6 10be 28ca 063e
000001d0: 02fe 36bd db0c 903d 9b53 aa3d 7180 0a3d
000001e0: 7aac f9bc b682 05be 54d6 1abe 11be e73d
000001f0: e095 14bd 87de d2bd 0d2e 143d de8f 06be
00000200: a862 d0bd 14b8 973d 23de 04be 0af1 8abe
00000210: ddd7 bdbd fb24 32bd 3d5e 0cbd 9939 143d
00000220: ab42 8f39 f11f cabd 5aaa bbba a973 b0bd
00000230: 4ff2 a5bd aae4 5b3d c288 88bd 6dea acbc
00000240: 3842 d8bd 7eca dc3d 25d6 723e 94de 07be
00000250: fa4e a33b 54d3 d83d 2826 9b3d e81b 043d
00000260: a889 74bd cfdb f63d d20d 5c3d 0c84 203b
00000270: ea07 8c3e 57a4 383d 178d 2b3e f17f 40bd
00000280: 0911 0ebd 3a85 1a3e 811d c83c 4b16 9c3a
00000290: 6704 10bd 8cc9 0c3e 3da0 eabd 64fc 893d
000002a0: ef4e a63d 01de 203c df68 90bb 6f31 153e
000002b0: ab8a a9be 9659 4bbe 61ca 283e 9d3e 8fbd
000002c0: 9259 30be cd0e c0bd a905 60bd 0d2d 27bb
000002d0: eb58 933d acbb 0a3d 4b75 843e 5cc1 6e3e
000002e0: eadc 293d 8764 bf3d 5e3b 34bc 2e86 593e
000002f0: b20d 4cbe a40d 953d a238 8e3d c122 1abc
00000300: 2485 82bd f328 423d 19af c8bd 16ac 6abd
00000310: 431e ba3d 94a7 debd 9499 843e a240 883d
00000320: a55a ebbd e5f1 d6bd 5acb ba3c 599b afbc
00000330: a527 563c 6053 723d 50ab 483d e33b df3d
00000340: 2dfc e1bd d3a4 023d b33b 6f3d 1082 83bd
00000350: 41ad 1bbc 8080 dbbd 343c b43d bc1b 3dbe
00000360: b6b8 1bbd 2ba2 323d 7a48 6abe 9099 efbd
00000370: 2d43 6ebd 2238 38be 360e f7bb f494 233d
00000380: 2cc1 063d def1 dabd bce1 f5bc b5f2 a83d
00000390: 98ea aebd af54 a9bd b2fd 3a3c aa90 c8bd
000003a0: d0a1 6dbd 3cca c23c ac7a 133e 759f 49bd
000003b0: 814b ee3c 5c9d 423e 803c bbbd bcd3 9cb9
000003c0: 65e3 eb3d f0db 99bd edd2 adbc 7deb dbbc
000003d0: bd2c 34be 8c8e 083d b9c3 14be 68e5 5bbd
000003e0: e292 983d e5d5 20be e5b3 febb 2eff 813c
000003f0: 7916 2ebe ff27 6dbd 53e0 84bc ed5b c8bd

block_2.2.bias f4 [10]
-0.06603939 0.062140357 0.0029904668 -0.122038476 0.17970864 -0.16795945 -0.25730062 -0.031089274
0.11182122 0.093471445
00000000: a93f 87bd e386 7e3d b5fb 433b 4fef f9bd
00000010: 8b05 383e 90fd 2bbe e8bc 83be efae febc
00000020: 8602 e53d f56d bf3d

classifier.1.weight f4 [10, 490]
0.019777583 0.05391095 0.018905085 -0.058994167 -0.008689649 0.047272522 0.00945209 -0.011947319
0.058913056 0.0093282005 0.017023092 -0.03468117 -0.03625128 0.013561593 0.020443812 0.022665052
-0.04347295 -0.04880896 0.0014322452 -0.032055706 -0.035272636 0.04196327 0.07199791 0.0053852936
0.019851414 0.036507856 -0.01486037 -0.043260198 0.017145487 -0.0034432577 -0.04139473 0.04770277
0.05442808 0.048493147 -0.0059808814 -0.03417779 0.0030260207 0.010965633 0.033695206 0.015112694
0.065622926 -0.009539308 -0.013378966 -0.021329988 0.032121286 0.03366932 -0.017700495 -0.0082370285
-0.031966608 0.037987426 -0.08133761 0.07908004 -0.06510756 -0.013523866 -0.004032907 0.03327647
0.032762118 -0.00830067 -0.042562187 -0.04614987 0.020629367 0.118845545 -0.022504432 0.09703019
0.02041119 0.031439792 -0.09247933 0.044938937 0.04971689 0.0111161005 0.039811097 -0.11615444
0.026829515 -0.0937348 0.05747277 0.048254035 0.015259647 -0.04739973 -0.009437393 0.055025343
-0.06783786 0.013884925 0.081963606 -0.061306227 -0.08129938 0.14473028 -0.009153809 -0.07404239
0.03128782 0.08110195 0.026134843 -0.030417444 0.11323251 -0.02260741 0.026005533 -0.027077073
-0.026652608 -0.0019328784 0.096162595 0.055434532 0.025366193 0.014661698 -0.042078823 -0.05453396
0.0034489464 -0.020748865 0.021736091 0.09348452 0.010459363 -0.12347445 0.016235173 -0.027083078
-0.05738297 -0.039067023 0.051316995 0.005365958 -0.0888746 0.024497077 0.03440985 -0.015843198
0.0043522674 -0.012209218 -0.0030527913 -0.17524262 0.07120375 0.043755718 0.025085062 -0.035350002
0.034465857 0.057013664 0.021024173 0.14752115 0.03966854 -0.09145927 0.11105236 -0.08928521
-0.030523032 -0.06841077 0.058129083 -0.023505306 -0.08366881 0.031681284 -0.072122484 -0.0807751
-0.022157619 -0.020898769 0.011220648 0.02832801 0.00018063678 -0.035057995 -0.07900996 0.14994118
0.043020815 -0.08197598 0.116933025 -0.15383965 -0.092762515 -0.023237694 0.09244359 -0.0045953174
0.007546239 0.04330847 -0.15227576 -0.13438657 -0.074762784 0.08176355 -0.010068993 0.00225934
0.06277939 0.055992573 -0.0800985 0.014010907 0.051268175 0.17933428 0.1929083 0.08173687
0.015605788 -0.13149887 -0.013606862 0.004204899 0.1010724 0.11963194 -0.007160991 0.017893065
-0.20242615 -0.039486077 0.024921084 -0.03249192 0.11732497 -0.061547592 0.06705959 -0.08256051
-0.07981135 0.036190554 0.002457331 0.11293866 0.08917988 0.014090726 0.057785735 -0.0045285868
0.044272184 -0.026686568 0.0014369597 -0.010457554 0.044629484 0.06631475 -0.012947998 -0.023242071
0.047064707 -0.01867414 -0.07379609 -0.021977287 0.06162059 -0.022955425 0.12131178 -0.101995535
-0.038370248 0.022917552 0.018600494 0.060914245 -0.022589862 0.017240202 0.020121818 -0.0713465
0.0012886492 0.02668926 -0.0468544 0.037211955 -0.051069878 -0.10080376 0.025676377 -0.07605929
0.010919158 -0.008185169 -0.086081445 -0.07673521 -0.08416123 0.036885273 -0.022618702 -0.039130084
0.024103815 -0.057660196 0.07634664 0.0062888428 -0.010976131 -0.06425132 0.12767944 -0.003863741
0.112687096 -0.11005799 0.028122202 0.0462148 -0.061862446 -0.03613354 -0.017944302 -0.00042535743
00000000: 9904 a23c bad1 5c3d d6de 9a3c dea3 71bd
00000010: 085f 0ebc d5a0 413d f0dc 1a3c b0be 43bc
00000020: d14e 713d 4fd5 183c 0374 8b3c d80d 0ebd
00000030: 397c 14bd 7231 5e3c c879 a73c 0fac b93c
00000040: b110 32bd e7eb 47bd 2dba bb3a d84c 03bd
00000050: 0a7a 10bd aee1 2b3d a473 933d 1e77 b03b
00000060: 6f9f a23c 4389 153d e978 73bc 9b31 31bd
00000070: b174 8c3c 47a8 61bb 858d 29bd fb63 433d
00000080: faef 5e3d c0a0 463d 45fb c3bb 03fe 0bbd
00000090: 3450 463b 33a9 333c fc03 0a3d 3c9b 773c
000000a0: 5065 863d c24a 1cbc 7333 5bbc 3abc aebc
000000b0: 9c91 033d d7e8 093d a100 91bc 9af4 06bc
000000c0: 6bef 02bd b498 1b3d 5594 a6bd b7f4 a13d
000000d0: 1d57 85bd 3593 5dbc 7a26 84bb e84c 083d
000000e0: 9231 063d 89ff 07bc b055 2ebd a507 3dbd
000000f0: ebfe a83c 4b65 f33d 375b b8bc c4b7 c63d
00000100: 5e35 a73c 03c7 003d ce65 bdbd e411 383d
00000110: f0a3 4b3d 4e20 363c f610 233d 61e2 edbd
00000120: 92c9 db3c 08f8 bfbd 9168 6b3d 06a6 453d
00000130: 9903 7a3c 3826 42bd 4c9f 1abc 4162 613d
00000140: 93ee 8abd 997d 633c 89dc a73d 3d1c 7bbd
00000150: 4a80 a6bd 2d34 143e dcf9 15bc 89a3 97bd
00000160: a827 003d c718 a63d bd18 d63c 012e f9bc
00000170: 72e6 e73d 2d33 b9bc 8e09 d53c bdd0 ddbc
00000180: 9256 dabc a358 fdba e5f0 c43d 520f 633d
00000190: c3cc cf3c 9e37 703c d85a 2cbd 005f 5fbd
000001a0: b807 623b 86f9 a9bc e30f b23c d074 bf3d
000001b0: c05d 2b3c 2ce0 fcbd a0ff 843c 55dd ddbc
000001c0: 680a 6bbd be04 20bd c531 523d ebd4 af3b
000001d0: e303 b6bd 18ae c83c 58f1 0c3d 98c9 81bc
000001e0: 779d 8e3b 2c09 48bc 5711 48bb cd72 33be
000001f0: 46d3 913d 3239 333d 307f cd3c 2acb 10bd
00000200: 122c 0d3d 2987 693d e33a ac3c c90f 173e
00000210: 7b7b 223d ff4e bbbd 6b6f e33d 2adb b6bd
00000220: 700b fabc f21a 8cbd c318 6e3d 338e c0bc
00000230: 8e5a abbd 3cc4 013d f4b4 93bd 6a6d a5bd
00000240: e583 b5bc e533 abbc cfd6 373c 2510 e83c
00000250: 5169 3d39 f998 0fbd f9cf a1bd 2e8a 193e
00000260: 9836 303d 06e3 a7bd 957a ef3d 2488 1dbe
00000270: 46fa bdbd fa5c bebc 1153 bd3d 5194 96bb
00000280: 7146 f73b 3964 313d 2dee 1bbe a29c 09be
00000290: 3b1d 99bd a673 a73d 6bf8 24bc 6f11 143b
000002a0: 7b92 803d 7858 653d af0a a4bd 018e 653c
000002b0: 94fe 513d 68a3 373e c189 453e a965 a73d
000002c0: 6baf 7f3c a4a7 06be 51ef 5ebc 40c9 893b
000002d0: 0cff ce3d 9701 f53d bfa6 eabb 7a94 923c
000002e0: cd48 4fbe 27bc 21bd 4d27 cc3c 3f16 05bd
000002f0: 1348 f03d 5419 7cbd 8a56 893d 7c15 a9bd
00000300: 2274 a3bd 8c3c 143d 2c0b 213b 624c e73d
00000310: f1a3 b63d cadc 663c bcb0 6c3d 8a64 94bb
00000320: c056 353d ca9d dabc 5e58 bc3a 2956 2bbc
00000330: 68cd 363d 07d0 873d d723 54bc 2866 bebc
00000340: ecc6 403d 83fa 98bc 6822 97bd b609 b4bc
00000350: df65 7c3d 040d bcbc 4f72 f83d 09e3 d0bd
00000360: 1f2a 1dbd 97bd bb3c 1060 983c 3781 793d
00000370: 600e b9bc 533b 8d3c 83d6 a43c 1d1e 92bd
00000380: e4e7 a83a 6fa3 da3c 66ea 3fbd 906b 183d
00000390: a62e 51bd 3472 cebd 4457 d23c f9c4 9bbd
000003a0: 45e6 323c 161b 06bc 784b b0bd 5a27 9dbd
000003b0: b95c acbd 0315 173d db4a b9bc de46 20bd
000003c0: 5d75 c53c 192d 6cbd a15b 9c3d a312 ce3b
000003d0: 3bd5 33bc 3296 83bd 66be 023e d136 7dbb
000003e0: 7ec8 e63d 1566 e1bd 8860 e63c bb4b 3d3d
000003f0: 7a63 7dbd c300 14bd eeff 92bc 8202 dfb9

classifier.1.bias f4 [10]
-0.015738783 -0.05127947 0.04756385 0.013982055 -0.055047035 -0.048294663 0.026036028 -0.022145716
0.037515476 0.017337522
00000000: 9fee 80bc 6c0a 52bd 50d2 423d fd14 653c
00000010: 0079 61bd a0d0 45bd 8249 d53c ef6a b5bc
00000020: d4a9 193d 6b07 8e3c
